…
ts":[]},{"cell_type":"code","source":["if net_type == \"LeNet\":\n","  net = LeNet5().to(device)\n","elif net_type == \"VGG\":\n","  net = VGG16().to(device)\n","\n","print(net)"],"metadata":{"colab":{"base_uri":"https://localhost:8080/"},"id":"f7-cKgF8Kq2f","executionInfo":{"status":"ok","timestamp":1751165106458,"user_tz":360,"elapsed":1191,"user":{"displayName":"Amaury Félix Díaz","userId":"00953197964137658974"}},"outputId":"88d2de9b-0355-4e18-aa2b-63f781be2dbc"},"execution_count":null,"outputs":[{"output_type":"stream","name":"stdout","text":["VGG16(\n","  (layer1): Sequential(\n","    (0): Conv2d(3, 64, kernel_size=(3, 3), stride=(1, 1), padding=(1, 1))\n","    (1): BatchNorm2d(64, eps=1e-05, momentum=0.1, affine=True, track_running_stats=True)\n","    (2): ReLU()\n","  )\n","  (layer2): Sequential(\n","    (0): Conv2d(64, 64, kernel_size=(3, 3), stride=(1, 1), padding=(1, 1))\n","    (1): BatchNorm2d(64, eps=1e-05, momentum=0.1, affine=True, track_running_stats=True)\n","    (2): ReLU()\n","    (3): MaxPool2d(kernel_size=2, stride=2, padding=0, dilation=1, ceil_mode=False)\n","  )\n","  (layer3): Sequential(\n","    (0): Conv2d(64, 128, kernel_size=(3, 3), stride=(1, 1), padding=(1, 1))\n","    (1): BatchNorm2d(128, eps=1e-05, momentum=0.1, affine=True, track_running_stats=True)\n","    (2): ReLU()\n","  )\n","  (layer4): Sequential(\n","    (0): Conv2d(128, 128, kernel_size=(3, 3), stride=(1, 1), padding=(1, 1))\n","    (1): BatchNorm2d(128, eps=1e-05, momentum=0.1, affine=True, track_running_stats=True)\n","    (2): ReLU()\n","    (3): MaxPool2d(kernel_size=2, stride=2, padding=0, dilation=1, ceil_mode=False)\n","  )\n","  (layer5): Sequential(\n","    (0): Conv2d(128, 256, kernel_size=(3, 3), stride=(1, 1), padding=(1, 1))\n","    (1): BatchNorm2d(256, eps=1e-05, momentum=0.1, affine=True, track_running_stats=True)\n","    (2): ReLU()\n","  )\n","  (layer6): Sequential(\n","    (0): Conv2d(256, 256, kernel_size=(3, 3), stride=(1, 1), padding=(1, 1))\n","    (1): BatchNorm2d(256, eps=1e-05, momentum=0.1, affine=True, track_running_stats=True)\n","    (2): ReLU()\n","  )\n","  (layer7): Sequential(\n","    (0): Conv2d(256, 256, kernel_size=(3, 3), stride=(1, 1), padding=(1, 1))\n","    (1): BatchNorm2d(256, eps=1e-05, momentum=0.1, affine=True, track_running_stats=True)\n","    (2): ReLU()\n","    (3): MaxPool2d(kernel_size=2, stride=2, padding=0, dilation=1, ceil_mode=False)\n","  )\n","  (layer8): Sequential(\n","    (0): Conv2d(256, 512, kernel_size=(3, 3), stride=(1, 1), padding=(1, 1))\n","    (1): BatchNorm2d(512, eps=1e-05, momentum=0.1, affine=True, track_running_stats=True)\n","    (2): ReLU()\n","  )\n","  (layer9): Sequential(\n","    (0): Conv2d(512, 512, kernel_size=(3, 3), stride=(1, 1), padding=(1, 1))\n","    (1): BatchNorm2d(512, eps=1e-05, momentum=0.1, affine=True, track_running_stats=True)\n","    (2): ReLU()\n","  )\n","  (layer10): Sequential(\n","    (0): Conv2d(512, 512, kernel_size=(3, 3), stride=(1, 1), padding=(1, 1))\n","    (1): BatchNorm2d(512, eps=1e-05, momentum=0.1, affine=True, track_running_stats=True)\n","    (2): ReLU()\n","    (3): MaxPool2d(kernel_size=2, stride=2, padding=0, dilation=1, ceil_mode=False)\n","  )\n","  (layer11): Sequential(\n","    (0): Conv2d(512, 512, kernel_size=(3, 3), stride=(1, 1), padding=(1, 1))\n","    (1): BatchNorm2d(512, eps=1e-05, momentum=0.1, affine=True, track_running_stats=True)\n","    (2): ReLU()\n","  )\n","  (layer12): Sequential(\n","    (0): Conv2d(512, 512, kernel_size=(3, 3), stride=(1, 1), padding=(1, 1))\n","    (1): BatchNorm2d(512, eps=1e-05, momentum=0.1, affine=True, track_running_stats=True)\n","    (2): ReLU()\n","  )\n","  (layer13): Sequential(\n","    (0): Conv2d(512, 512, kernel_size=(3, 3), stride=(1, 1), padding=(1, 1))\n","    (1): BatchNorm2d(512, eps=1e-05, momentum=0.1, affine=True, track_running_stats=True)\n","    (2): ReLU()\n","    (3): MaxPool2d(kernel_size=2, stride=2, padding=0, dilation=1, ceil_mode=False)\n","  )\n","  (fc): Sequential(\n","    (0): Dropout(p=0.5, inplace=False)\n","    (1): Linear(in_features=25088, out_features=4096, bias=True)\n","    (2): ReLU()\n","  )\n","  (fc1): Sequential(\n","    (0): Dropout(p=0.5, inplace=False)\n","    (1): Linear(in_features=4096, out_features=4096, bias=True)\n","    (2): ReLU()\n","  )\n","  (fc2): Sequential(\n","    (0): Linear(in_features=4096, out_features=17, bias=True)\n","  )\n",")\n"]}]},{"cell_type":"code","source":["# Definir hiperparámetros\n","\n","learning_rate = 1e-3\n","epochs = 100\n","\n","loss_function = nn.CrossEntropyLoss()\n","\n","optimizer = torch.optim.SGD(net.parameters(), lr=learning_rate)"],"metadata":{"id":"EG9eoKpWKsim"},"execution_count":null,"outputs":[]},{"cell_type":"code","source":["# Entr
…
